…
ight_decay=0.0005, warmup_epochs=3.0, warmup_momentum=0.8, warmup_bias_lr=0.1, box=7.5, cls=0.5, dfl=1.5, pose=12.0, kobj=1.0, label_smoothing=0.0, nbs=64, hsv_h=0.015, hsv_s=0.7, hsv_v=0.4, degrees=0.0, translate=0.1, scale=0.5, shear=0.0, perspective=0.0, flipud=0.0, fliplr=0.5, mosaic=1.0, mixup=0.0, copy_paste=0.0, auto_augment=randaugment, erasing=0.4, crop_fraction=1.0, cfg=None, tracker=botsort.yaml, save_dir=runs/obb/train

                   from  n    params  module                                       arguments                     
  0                  -1  1 151277313  ultralytics.nn.modules.conv.Clip             [3, ['traffic'], True]        
  1                  -1  1 151277313  ultralytics.nn.modules.conv.Clip             [3, ['traffic'], False]       
  2                   0  1      1392  ultralytics.nn.modules.conv.Conv             [3, 48, 3, 2]                 
  3                  -1  1     41664  ultralytics.nn.modules.conv.Conv             [48, 96, 3, 2]                
  4                  -1  2    111360  ultralytics.nn.modules.block.C2f             [96, 96, 2, True]             
  5                  -1  1    166272  ultralytics.nn.modules.conv.Conv             [96, 192, 3, 2]               
  6                  -1  4    813312  ultralytics.nn.modules.block.C2f             [192, 192, 4, True]           
  7                  -1  1    664320  ultralytics.nn.modules.conv.Conv             [192, 384, 3, 2]              
  8                  -1  4   3248640  ultralytics.nn.modules.block.C2f             [384, 384, 4, True]           
  9                  -1  1   1991808  ultralytics.nn.modules.conv.Conv             [384, 576, 3, 2]              
 10                  -1  2   3985920  ultralytics.nn.modules.block.C2f             [576, 576, 2, True]           
 11                  -1  1    831168  ultralytics.nn.modules.block.SPPF            [576, 576, 5]                 
 12                  -1  1         0  torch.nn.modules.upsampling.Upsample         [None, 2, 'nearest']          
 13             [-1, 8]  1         0  ultralytics.nn.modules.conv.Concat           [1]                           
 14                  -1  2   1993728  ultralytics.nn.modules.block.C2f             [960, 384, 2]                 
 15                  -1  1         0  torch.nn.modules.upsampling.Upsample         [None, 2, 'nearest']          
 16             [-1, 6]  1         0  ultralytics.nn.modules.conv.Concat           [1]                           
 17                  -1  2    517632  ultralytics.nn.modules.block.C2f             [576, 192, 2]                 
 18             [-1, 1]  1     37154  ultralytics.nn.modules.conv.CrossAttention   [192, 3, 7]                   
 19                  -1  1    332160  ultralytics.nn.modules.conv.Conv             [192, 192, 3, 2]              
 20            [-1, 14]  1         0  ultralytics.nn.modules.conv.Concat           [1]                           
 21                  -1  2   1846272  ultralytics.nn.modules.block.C2f             [576, 384, 2]                 
 22             [-1, 1]  1    147938  ultralytics.nn.modules.conv.CrossAttention   [384, 3, 7]                   
 23                  -1  1   1327872  ultralytics.nn.modules.conv.Conv             [384, 384, 3, 2]              
 24            [-1, 11]  1         0  ultralytics.nn.modules.conv.Concat           [1]                           
 25                  -1  2   4207104  ultralytics.nn.modules.block.C2f             [960, 576, 2]                 
 26             [-1, 1]  1    332450  ultralytics.nn.modules.conv.CrossAttention   [576, 3, 7]                   
 27        [18, 22, 26]  1   4344976  ultralytics.nn.modules.head.OBB              [15, 1, [192, 384, 576]]      
YOLOv8m-obb-clip summary: 803 layers, 329497768 parameters, 329497752 gradients

[34m[1mTensorBoard: [0mStart with 'tensorboard --logdir runs/obb/train', view at http://localhost:6006/
Freezing layer 'model.27.dfl.conv.weight'
[34m[1mAMP: [0mrunning Automatic Mixed Precision (AMP) checks with YOLOv8n...
[34m[1mAMP: [0mchecks passed ✅
[34m[1mAutoBatch: [0mComputing optimal batch size for imgsz=640
…
